…
)\n","\n","        x = x.view(x.size(0), -1)\n","        x = F.relu(self.fc1(x))\n","        x = self.fc2(x)\n","\n","        return x\n","\n","\n","model = VGGLikeCNN().to(device)\n","print(model)\n"],"metadata":{"id":"9_4NbAJdZlJb","colab":{"base_uri":"https://localhost:8080/"},"executionInfo":{"status":"ok","timestamp":1751954250967,"user_tz":-540,"elapsed":126,"user":{"displayName":"Junseop So (쏘주형)","userId":"07758510494740838877"}},"outputId":"00a10d49-26a4-4795-bb9b-7b5fcbb29307"},"execution_count":10,"outputs":[{"output_type":"stream","name":"stdout","text":["VGGLikeCNN(\n","  (conv1_1): Conv2d(3, 32, kernel_size=(3, 3), stride=(1, 1), padding=(1, 1))\n","  (conv1_2): Conv2d(32, 32, kernel_size=(3, 3), stride=(1, 1), padding=(1, 1))\n","  (pool1): Conv2d(32, 32, kernel_size=(3, 3), stride=(2, 2), padding=(1, 1))\n","  (conv2_1): Conv2d(32, 64, kernel_size=(3, 3), stride=(1, 1), padding=(1, 1))\n","  (conv2_2): Conv2d(64, 64, kernel_size=(3, 3), stride=(1, 1), padding=(1, 1))\n","  (conv2_merge): Conv2d(96, 64, kernel_size=(3, 3), stride=(1, 1), padding=(1, 1))\n","  (pool2): Conv2d(64, 64, kernel_size=(3, 3), stride=(2, 2), padding=(1, 1))\n","  (conv3_1): Conv2d(64, 128, kernel_size=(3, 3), stride=(1, 1), padding=(1, 1))\n","  (conv3_2): Conv2d(128, 128, kernel_size=(3, 3), stride=(1, 1), padding=(1, 1))\n","  (conv3_merge): Conv2d(192, 128, kernel_size=(3, 3), stride=(1, 1), padding=(1, 1))\n","  (pool3): Conv2d(128, 128, kernel_size=(3, 3), stride=(2, 2), padding=(1, 1))\n","  (fc1): Linear(in_features=2048, out_features=256, bias=True)\n","  (fc2): Linear(in_features=256, out_features=2, bias=True)\n",")\n"]}]},{"cell_type":"code","source":["class_weights_norm = class_weights / 3.3333e-05\n","class_weights_norm"],"metadata":{"colab":{"base_uri":"https://localhost:8080/"},"id":"dh03Lxpedlwl","executionInfo":{"status":"ok","timestamp":1751954250980,"user_tz":-540,"elapsed":14,"user":{"displayName":"Junseop So (쏘주형)","userId":"07758510494740838877"}},
…
